…
    "target_valid_raw": "dev.en",
    "out": "result",
    "source_vocab": 40000,
    "target_vocab": 40000,
    "no_bleu": false,
    "label_smoothing": 0.0,
    "embed_position": false,
    "use_fixed_lr": false,
    "hyp_dev": "hyp_dev.txt",
    "hyp_test": "hyp_test.txt",
    "debug": false
}
# of tokens: 136900
# of unknown: 0 (0.00 %)
# of tokens: 96694
# of unknown: 0 (0.00 %)
Source Vocab: 7983
Target Vocab: 6962
Original training data size: 10000
Filtered training data size: 9991
# of tokens: 6681
# of unknown: 194 (2.90 %)
# of tokens: 4735
# of unknown: 170 (3.59 %)
Transformer(
  (embed_x): Embedding(7983, 512, padding_idx=0)
  (embed_y): Embedding(6962, 512, padding_idx=0)
  (embed_dropout): Dropout(p=0.2)
  (encoder): Encoder(
    (layers): ModuleList(
      (0): EncoderLayer(
        (self_attention): MultiHeadAttention(
          (W_Q): LinearSent(
            (L): Linear(in_features=512, out_features=512, bias=False)
          )
          (W_K): LinearSent(
            (L): Linear(in_features=512, out_features=512, bias=False)
          )
          (W_V): LinearSent(
            (L): Linear(in_features=512, out_features=512, bias=False)
          )
          (finishing_linear_layer): LinearSent(
            (L): Linear(in_features=512, out_features=512, bias=False)
          )
        )
        (dropout1): Dropout(p=0.2)
        (ln_1): LayerNormSent(
        )
        (feed_forward): FeedForwardLayer(
          (W_1): LinearSent(
            (L): Linear(in_features=512, out_features=2048, bias=True)
          )
          (act): ReLU()
          (W_2): LinearSent(
            (L): Linear(in_features=2048, out_features=512, bias=True)
          )
        )
        (dropout2): Dropout(p=0.2)
        (ln_2): LayerNormSent(
        )
      )
    )
  )
  (decoder): Decoder(
    (layers): ModuleList(
      (0): DecoderLayer(
        (self_attention): MultiHeadAttention(
          (W_Q): LinearSent(
            (L): Linear(in_features=512, out_features=512, bias=False)
          )
          (W_K): LinearSent(
            (L): Linear(in_features=512, out_features=512, bias=False)
          )
          (W_V): LinearSent(
            (L): Linear(in_features=512, out_features=512, bias=False)
          )
          (finishing_linear_layer): LinearSent(
            (L): Linear(in_features=512, out_features=512, bias=False)
          )
        )
        (dropout1): Dropout(p=0.2)
        (ln_1): LayerNormSent(
        )
        (source_attention): MultiHeadAttention(
          (W_Q): LinearSent(
            (L): Linear(in_features=512, out_features=512, bias=False)
          )
          (W_K): LinearSent(
            (L): Linear(in_features=512, out_features=512, bias=False)
          )
          (W_V): LinearSent(
            (L): Linear(in_features=512, out_features=512, bias=False)
          )
          (finishing_linear_layer): LinearSent(
            (L): Linear(in_features=512, out_features=512, bias=False)
          )
        )
        (dropout2): Dropout(p=0.2)
        (ln_2): LayerNormSent(
        )
        (feed_forward): FeedForwardLayer(
          (W_1): LinearSent(
            (L): Linear(in_features=512, out_features=2048, bias=True)
          )
          (act): ReLU()
          (W_2): LinearSent(
            (L): Linear(in_features=2048, out_features=512, bias=True)
          )
        )
        (dropout3): Dropout(p=0.2)
        (ln_3): LayerNormSent(
        )
      )
    )
  )
  (affine): Linear(in_features=512, out_features=6962, bias=False)
)
Number of iter/epoch = 999
epoch 	 steps 	 train_loss 	 lr 	 time
         3130079 function calls (3095621 primitive calls) in 14.115 seconds

   Ordered by: standard name

   ncalls  tottime  percall  cumtime  percall filename:lineno(function)
        1    0.000    0.000    0.000    0.000 <decorator-gen-0>:1(<module>)
        1    0.000    0.000    0.000    0.000 <decorator-gen-100>:1(<module>)
…
